…
    "6) Softmax function was used to classify 133 dog types in the final output layer\n",
    "\n",
    "\n",
    "It took about 15 mins to run this model on my macbook.\n"
   ]
  },
  {
   "cell_type": "code",
   "execution_count": 13,
   "metadata": {
    "collapsed": false,
    "deletable": true,
    "editable": true
   },
   "outputs": [
    {
     "name": "stdout",
     "output_type": "stream",
     "text": [
      "_________________________________________________________________\n",
      "Layer (type)                 Output Shape              Param #   \n",
      "=================================================================\n",
      "conv2d_1 (Conv2D)            (None, 224, 224, 8)       224       \n",
      "_________________________________________________________________\n",
      "max_pooling2d_2 (MaxPooling2 (None, 112, 112, 8)       0         \n",
      "_________________________________________________________________\n",
      "conv2d_2 (Conv2D)            (None, 112, 112, 16)      1168      \n",
      "_________________________________________________________________\n",
      "max_pooling2d_3 (MaxPooling2 (None, 56, 56, 16)        0         \n",
      "_________________________________________________________________\n",
      "conv2d_3 (Conv2D)            (None, 56, 56, 32)        4640      \n",
      "_________________________________________________________________\n",
      "max_pooling2d_4 (MaxPooling2 (None, 28, 28, 32)        0         \n",
      "_________________________________________________________________\n",
      "dropout_1 (Dropout)          (None, 28, 28, 32)        0         \n",
      "_________________________________________________________________\n",
      "flatten_2 (Flatten)          (None, 25088)             0         \n",
      "_________________________________________________________________\n",
      "dense_1 (Dense)              (None, 75)                1881675   \n",
      "_________________________________________________________________\n",
      "dropout_2 (Dropout)          (None, 75)                0         \n",
      "_________________________________________________________________\n",
      "dense_2 (Dense)              (None, 133)               10108     \n",
      "=================================================================\n",
      "Total params: 1,897,815.0\n",
      "Trainable params: 1,897,815.0\n",
      "Non-trainable params: 0.0\n",
      "_________________________________________________________________\n"
     ]
    }
   ],
   "source": [
    "from keras.layers import Conv2D, MaxPooling2D, GlobalAveragePooling2D\n",
    "from keras.layers import Dropout, Flatten, Dense\n",
…
